models/simple_nn_model.pth (torch, 3024 bytes, 4 tensors)

fc1.weight f4 [16, 9]
0	0xbe279d70	-0.16368651
1	0xbd87a2b7	-0.06622832
2	0x3e3b2621	0.18276264
3	0xbf39bf8d	-0.7255791
4	0x3d9a6288	0.075383246
5	0xbd92b8c0	-0.071641445
6	0xbe9e2199	-0.30885008
7	0xbe9ccd4c	-0.3062538
8	0xbd9a74a0	-0.07541776
9	0xbcb37f00	-0.021911144
10	0x3d139478	0.036030263
11	0xbe939c0e	-0.28829998
12	0x3da7ee34	0.081997305
13	0x3d1606e0	0.03662765
14	0xbe4c0363	-0.19923167
15	0xbdf7fa80	-0.12108326
16	0xbda37d9c	-0.079829425
17	0xbe5969d6	-0.2123178
18	0xbd958d20	-0.07302308
19	0xbd719e58	-0.0589889
20	0xbdb28610	-0.08716977
21	0xbd794bd8	-0.060863346
22	0x3e46908a	0.19391075
23	0xbe4c9b43	-0.19981103
24	0x3cbad050	0.02280441
25	0x3d190660	0.037359595
26	0x3c86eec0	0.016471267
27	0x3e71a898	0.2359947
28	0x3eabd536	0.33561105
29	0xbd1c2fd2	-0.038131543
30	0xbea71772	-0.32635075
31	0x3e4e3a25	0.20139368
32	0x3e5ea415	0.2174228
33	0xbe919595	-0.28434435
34	0xbe708590	-0.2348845
35	0xbe03a707	-0.12856685
36	0xbf621621	-0.88315016
37	0x3e481bd8	0.19541872
38	0x3f1c7e14	0.6112988
39	0x3e04f399	0.1298355
40	0xbe1dc52b	-0.15407245
41	0x3e8b5625	0.2721416
42	0xbf6de2a2	-0.9292394
43	0xbf371961	-0.715231
44	0x3e0cdd4f	0.13756298
45	0xbe120358	-0.14259088
46	0xbea4d586	-0.32194155
47	0x3e76e7f6	0.24111924
48	0x3e98132b	0.29702124
49	0xbe448e9b	-0.19195025
50	0x3e89b99f	0.2689943
51	0x3cae3670	0.021266192
52	0xbe01e476	-0.12684807
53	0x3d012a80	0.03153467
54	0xbe6664d8	-0.22499406
55	0xbd641100	-0.055680275
56	0xbe6a38a0	-0.22873163
57	0xbdfb457c	-0.122691125
58	0x3e4003a6	0.18751392
59	0xbe84f980	-0.25971603
60	0xbe7edae8	-0.24888194
61	0xbd833ca4	-0.06408051
62	0xbe905e73	-0.2819706
63	0xbe83472a	-0.2564023
64	0xbe720580	-0.2363491
65	0x3ea0d283	0.31410608
66	0xbc12e860	-0.008966535
67	0xbe2adc68	-0.16685641
68	0xbe781733	-0.242276
69	0xbdbf463c	-0.09339568
70	0xbd8ea10c	-0.06964311
71	0x3ea32865	0.31866756
72	0xbef4b15e	-0.4779157
73	0xbe80bb27	-0.25142786
74	0xbe669f13	-0.2252162
75	0xbee1b1f8	-0.44081092
76	0xbb35342c	-0.0027649505
77	0x3e2a5b26	0.16636333
78	0x3e0abd42	0.13548759
79	0xbee43a8e	-0.44575924
80	0xbeba6f56	-0.36413068
81	0xbf7114d0	-0.9417238
82	0xbdd29e1c	-0.10284063
83	0xbdf14d94	-0.11782375
84	0xbf054987	-0.5206532
85	0xbdc94e5c	-0.09829399
86	0xbdc82f71	-0.09774674
87	0x3dc199c8	0.094531596
88	0xbe76cc72	-0.24101427
89	0xbf3ec989	-0.7452627
90	0xbb03f65b	-0.0020135853
91	0xbd36d80e	-0.04463964
92	0xbde2384d	-0.11045895
93	0x3ec51395	0.38491502
94	0xbea6f026	-0.32605094
95	0xbe7f4bd7	-0.24931274
96	0x3df58940	0.11989069
97	0xbf013580	-0.5047226
98	0x3e1f46ca	0.15554348
99	0xbd1dc37c	-0.038516507
100	0x3dfdc9c7	0.123920016
101	0x3d2c4a4d	0.042063046
102	0xbe3a7838	-0.18209922
103	0x3d60b8bc	0.054863676
104	0x3e31e8e7	0.17374001
105	0xbdde2092	-0.10846056
106	0xbe583397	-0.2111343
107	0xbe07b949	-0.13254274
108	0xbd5a5d93	-0.053311896
109	0x3e3d1013	0.18463163
110	0xbe9bc075	-0.3042027
111	0xbe089a52	-0.13340119
112	0xbdb7cfbb	-0.08975168
113	0xbe958464	-0.2920257
114	0x3e930c62	0.28720385
115	0xbe962690	-0.29326296
116	0x3ea2ad7e	0.3177299
117	0x3e696fe6	0.22796592
118	0x3a5c4800	0.0008403063
119	0x3cc41440	0.023935437
120	0xbe18cb23	-0.1492124
121	0xbe975e13	-0.2956396
122	0xbcff04b0	-0.031130165
123	0xbe21deb3	-0.1580761
124	0x3e41271e	0.18862578
125	0x3c1ef560	0.009702057
126	0xbe1d5bea	-0.15367094
127	0xbe595614	-0.21224242
128	0xbe504ac1	-0.20341016
129	0x3ddd01c2	0.10791351
130	0xbeb012fd	-0.34389487
131	0x3d56e1d5	0.052461464
132	0x3d9646e7	0.07337742
133	0x3da8aa95	0.08235661
134	0xbde27ace	-0.110585794
135	0x3dae2444	0.08503011
136	0xbdbd3f50	-0.092405915
137	0xbe205fb0	-0.15661502
138	0x3d7c4b88	0.06159547
139	0x3e4140de	0.18872401
140	0xbe650df0	-0.22368598
141	0xbe3cb353	-0.18427782
142	0x3dbdc80c	0.092666715
143	0x3e2e7ec2	0.17040542

fc1.bias f4 [16]
0	0xbe1b387e	-0.15158269
1	0xbe9a6dc7	-0.30161878
2	0xbea13abc	-0.31490123
3	0xbedebdb0	-0.43504095
4	0xbf06545b	-0.52472466
5	0xbe3b06c0	-0.18264294
6	0xbe2bd7d8	-0.16781557
7	0xbea271fc	-0.31727588
8	0xbd907aea	-0.07054694
9	0x3d4db8d4	0.050225094
10	0x3c918a28	0.017766073
11	0xbe5bc809	-0.21463026
12	0xbdd5c699	-0.1043827
13	0xbe90c7ee	-0.28277534
14	0x3da65070	0.08120811
15	0xbea8523b	-0.32875237

fc2.weight f4 [4, 16]
0	0xbe3846b8	-0.17995727
1	0x3d90ae38	0.070644796
2	0x3e1458b4	0.14486963
3	0xbc0d8e70	-0.008639917
4	0xbf38b5e8	-0.72152567
5	0x3c3706c0	0.011171043
6	0xbe1adfac	-0.15124387
7	0xbe0cce84	-0.13750654
8	0xbea67794	-0.32513106
9	0xbd27b845	-0.040947217
10	0xbe9432f3	-0.2894512
11	0x3e0f1cc3	0.13975815
12	0xbe002104	-0.12512594
13	0x3e4424ee	0.19154713
14	0x3d9a509c	0.07534906
15	0x3e738f2e	0.23785087
16	0xbd0e8049	-0.03479031
17	0x3e622c2c	0.22087163
18	0x3d20ebe0	0.039287448
19	0xbd203bdd	-0.03911959
20	0x3e7b2692	0.24526432
21	0xbe64c696	-0.2234138
22	0xbdf4dd10	-0.11956227
23	0xbd0960f0	-0.033539712
24	0x3d87e28e	0.06635009
25	0x3d9c352d	0.0762733
26	0x3d76c212	0.060243674
27	0x3da4c14b	0.0804468
28	0xbd9cc72a	-0.07655175
29	0x3da78360	0.08179355
30	0xbd5258ad	-0.0513541
31	0xbe709a58	-0.23496377
32	0x3e2b35c8	0.16719735
33	0x3de6f284	0.11276725
34	0xbe640586	-0.22267732
35	0xbe279a10	-0.16367364
36	0x3edebf22	0.43505198
37	0xbdbdc2f4	-0.092657
38	0x3d9c3210	0.07626736
39	0x3e7b638c	0.24549693
40	0x3f0c8cbc	0.54902244
41	0x3ef078ac	0.46967065
42	0x3cf90222	0.030396525
43	0xbd9b514d	-0.07583866
44	0xbc0d5ad0	-0.008627608
45	0xbcec13b0	-0.028817981
46	0x3d807cbc	0.06273791
47	0xbdd2951c	-0.102823466
48	0xbc31aede	-0.010844914
49	0xbe31f2b6	-0.17377743
50	0xbe42c3f6	-0.19020066
51	0xbe260ade	-0.16215083
52	0x3ef1af0c	0.47203863
53	0x3d86718c	0.06564626
54	0xbd78ee80	-0.060774326
55	0xbdfeab40	-0.12435007
56	0x3e40e23b	0.188363
57	0x3d85e63b	0.065380536
58	0xbd10312b	-0.03520314
59	0xbc915c1d	-0.017744118
60	0x3e3b490d	0.18289585
61	0xbe225ec6	-0.15856466
62	0xbe068ca1	-0.13139583
63	0xbd999f94	-0.0750114

fc2.bias f4 [4]
0	0x3e30dbda	0.17271367
1	0x3e6cc355	0.23121388
2	0x3eb2142e	0.3478102
3	0x3e90fa08	0.2831576
